Reacher.pt (torch_old, 101113 bytes, 16 tensors)

weight f4 [64, 33]
00000000: 3753 41be 9ca9 603e 6f96 09be 4dc7 3bbe
00000010: 0db2 64bd 9fa3 d4bd 3d23 3cbe be05 75be
00000020: f961 913c 5cc9 333e 3832 ba3c 266c a93e
00000030: a28b b63d 1be7 a03d f893 42be 06f9 673e
00000040: d639 d1bc 3696 103d 9c42 9c39 e608 483c
00000050: 0bd1 573e fd3d 373d 4a9a b23e f5f2 213e
00000060: ab6c e93d ce99 003e 8ccf 42bd 99e2 ba3b
00000070: 5750 4fbe cba4 9c3e b313 9c3d 1167 2e3e
00000080: 925e abbe 60f9 983e c04d f33d 4dc6 413e
00000090: cf28 2e3e cad3 20be 5b3d 89be 9b87 1dbd
000000a0: 8493 18be 586f afbd b6a7 1e3e 96a9 89ba
000000b0: 32da 9d3e 17de 5d3e f7ab 3a3d c396 73bd
000000c0: ef5e 213d 9504 d83d 7813 3e3c 47b1 e03d
000000d0: d499 783d af54 863c 54ca ce3e cbb6 213c
000000e0: 0c90 6f3e cef7 053c 07d5 813e eb54 1ebe
000000f0: d0a7 1dbe b336 503c 4d5a 8f3e 5d3f 053e
00000100: 302b 333e bf35 5a3e d108 873d b49e 55bc
00000110: bebb 5c3d 1f9d b2bd 989f 04bf 34b9 a8bd
00000120: 0059 153e a864 bc3e a1aa 27be d5a0 33be
00000130: 1fd4 15be f192 2c3d 245e b83e cad6 13be
00000140: 3abe 28be 6558 1a3e 1437 08be a323 c2bd
00000150: f53e 823d da92 5ebd af70 8fbd abb1 f53d
00000160: f16e abbd 5b14 2abb 09f4 1cbe c1d5 f8bb
00000170: f8ab ab3d 4887 183e 3190 873c 80d7 143e
00000180: e63d 59be d2ad 9dbe c41d dfbd 3a6a 04be
00000190: 0ba7 043e d989 aebe 947c bf3d 37b2 aebc
000001a0: 40e2 00bc 3001 55bd 79e5 8f3e 759c 763d
000001b0: ed53 b63d 2722 01bf 0efd 173e 1d3b 40bd
000001c0: fdf4 57be b094 7abd db06 97bd 3239 323e
000001d0: fa1f 973c 276d 78be 8520 3f3e 3b6f 683e
000001e0: c768 8e3e ec1f a6bd 4cc1 d3bd e2a4 f63d
000001f0: 8850 47be 87c9 5d3e b34e 7ebd 3c54 76bb
00000200: 95d8 2f3e 7129 b5bd 630c cd3c 7caa 8d3c
00000210: ed2f ed3d 81fc 8abd 8936 b1bd 92f0 c03e
00000220: 7e65 9a3d 58d6 8d3e 465b aabe f9b0 4cbe
00000230: 219f 213d 93a7 25bd e6d0 14bd ca16 debd
00000240: 683e 1cbe ee50 173e e97b 1d3e 6f2c 8e3e
00000250: bb20 3fbe b326 f9bd f1b8 0fbe c7c1 ee3d
00000260: a972 0cbe ecb2 73be 653b ff3d 05f2 9a3e
00000270: 0b64 efbc 0903 b53c 3710 3c3e c238 81bd
00000280: d226 1c3e 6b19 1d3e 8e7d 68be 3de7 373e
00000290: c368 f9bc 4a7e c7bd 5937 c0bd d6ea 593e
000002a0: 6577 6ebe f08e 2f3d a720 dabc 159d 32bd
000002b0: 863b d2bd 0136 853e c83c 69bd 8663 3c3d
000002c0: 796b 823d a98b ecbd 7bdb 5abc a0cc 07be
000002d0: 51f3 42be 70b2 c53d 843a 1cbe de4f 86bd
000002e0: 2371 5e3e ebfa bcbe 4caf c2be d4fb 173e
000002f0: ce39 433e eecb 1b3e 86ea 8abd 6518 38be
00000300: 0bb3 dbbe bb73 ba39 c0f1 3c3d af59 473d
00000310: b431 083e 8ab9 243e 4dff 31be 78d0 5fbe
00000320: e48e 293e 0067 6abc b695 5cbd 10f8 3e3e
00000330: 465d d03e 51d8 093e b28d 293e f61c 0e3c
00000340: d59c 5b3e 1756 95bc 5d4b 233c 6b51 5fbc
00000350: 4675 edbd a8f0 06be 6643 943e 516d 87bd
00000360: 91db 983e eb3e d2bb 65f9 a5be 73f9 ed3d
00000370: 3fcb 30be 7c31 133e 1be2 8f3d 9ab1 dfbc
00000380: a6e0 9ebd 5e80 623e 6030 843e 3d54 96be
00000390: fd18 a63d 4993 373d 5c01 1a3d 145b 45be
000003a0: b8c3 14be 4c70 5d3e 8c8d 43be 6e01 c33d
000003b0: 29d1 a03e c3ab 88bd d5e9 86ba bca9 dbbd
000003c0: fcfa f33d 29f2 173c babc 063d 70de fabb
000003d0: 76e4 81be 1c24 203e ec66 76bd ec79 89be
000003e0: 6970 c93d 695e 693e 7c52 a9bd 6278 ab3e
000003f0: 96db 36be 134a c3bd 8402 2a3d 7f50 843e
-0.188794 0.21939701 -0.13436292 -0.18337746 -0.055833865 -0.10382771 -0.18372817 -0.23927972
0.017746912 0.17557281 0.022729024 0.33090323 0.089133516 0.0785658 -0.19001758 0.22653589
-0.025540274 0.035299502 0.00029804267 0.012209153 0.21075837 0.04473685 0.34883338 0.15815337
0.1139768 0.12558672 -0.047561213 0.005703282 -0.20245491 0.30594477 0.07620945 0.17031504
-0.3347059 0.29877758 0.11880064 0.18923302 0.17007755 -0.15705791 -0.26804623 -0.0384594
-0.14900023 -0.08566159 0.15493664 -0.0010502811 0.30830532 0.21666752 0.045574155 -0.05946995
0.039397176 0.10547749 0.011601321 0.10971313 0.060693577 0.016397802 0.4038874 0.009870241
0.23394793 0.008176757 0.2535784 -0.15462081 -0.15396047 0.012708354 0.27998582 0.13012452
0.17496943 0.21309565 0.065934785 -0.013038326 0.053889982 -0.08721375 -0.5180602 -0.0823845
0.14584732 0.36795545 -0.16373684 -0.17541821 -0.14631699 0.04213232 0.36009324 -0.14437404
-0.16478816 0.15072782 -0.1330226 -0.094794534 0.06359664 -0.054339267 -0.070039146 0.11996778
-0.0837077 -0.0025952074 -0.15327467 -0.007593841 0.0838241 0.14895356 0.016548248 0.14535332
-0.21215019 -0.30796677 -0.10894349 -0.12931147 0.12954347 -0.34089544 0.09349933 -0.021325214
-0.007866442 -0.052003086 0.2810476 0.060207803 0.08902726 -0.5044274 0.14842626 -0.046931375
-0.2108955 -0.061176956 -0.073743545 0.17404631 0.018447865 -0.24260388 0.18664749 0.22698681
0.27814314 -0.08111557 -0.10339603 0.12043168 -0.19464314 0.21658908 -0.062086772 -0.0037586829
0.17172463 -0.08845795 0.02503032 0.017293207 0.11581407 -0.067864425 -0.0865298 0.3768354
0.07538889 0.27702594 -0.3327276 -0.19989385 0.039458398 -0.040443014 -0.036332034 -0.108441904
-0.15258181 0.14776966 0.15379299 0.27768275 -0.1866483 -0.121655844 -0.14035393 0.11658054
-0.13715614 -0.23798722 0.124625005 0.3026277 -0.029222509 0.022096174 0.1836556 -0.06309654
0.15249184 0.15341727 -0.22704145 0.17959304 -0.030445462 -0.097408846 -0.09385557 0.21280989
-0.23287733 0.042860925 -0.026626898 -0.043606836 -0.102652594 0.26017764 -0.05694273 0.04599335
0.06368155 -0.115500756 -0.013357992 -0.13261652 -0.1903813 0.09653175 -0.15256697 -0.06558202
0.21722846 -0.36910185 -0.38024366 0.14842159 0.1906502 0.15214512 -0.06783013 -0.17978056
-0.42910036 0.0003556291 0.04612899 0.048669513 0.1330021 0.16086403 -0.17382546 -0.21856868
0.16558415 -0.014306784 -0.053853713 0.18649316 0.40696162 0.13461424 0.16557959 0.008673897
0.21446545 -0.018229527 0.0099666985 -0.013630251 -0.11594634 -0.1317774 0.2895767 -0.06612647
0.29855016 -0.006416192 -0.32416835 0.11619844 -0.17265032 0.14374346 0.07025548 -0.027306367
-0.07757692 0.2211928 0.25818157 -0.29361144 0.08110235 0.044818196 0.037598953 -0.19273025
-0.14527786 0.21624869 -0.19096965 0.09521757 0.31409577 -0.06673386 -0.0010293076 -0.10725734
0.11913106 0.009274044 0.032894827 -0.007655911 -0.25369614 0.15638775 -0.060156748 -0.26850832
0.09835894 0.22789921 -0.08267686 0.33490282 -0.17857203 -0.09535613 0.041506305 0.25842664

bias f4 [64]
00000000: 1815 a73b 53d9 c8bb bded 913c 404d d1b8
00000010: b8a8 5bbc 31a5 de3b d035 e93b 259f 44bb
00000020: a0ee c7bb 7fcd ca3b cb58 5dbb 7447 163c
00000030: 9b21 3e3b aef6 a03b 9ce3 1f3c 5bfb 7f3a
00000040: a088 e63b 3a77 4dbb 6030 6ebb 89ab 4a3a
00000050: 714c 5d3c 94a8 193c fc3a 03bc ef0a 4bbc
00000060: bbe3 303b 2a37 923a ae40 c93a 3457 b1ba
00000070: cdbf 9bbb 6572 fbbb 3d44 87bb 5b05 083c
00000080: 2722 193b 7894 5e39 0297 3fbb 6735 ddb8
00000090: 86cc 83ba f5e8 fb3b e217 93bc 69bc 20bc
000000a0: ddcf 2539 2a5b 87bb dc90 373b 04c6 20ba
000000b0: 0425 b73b a0d0 ed3a 8d5e 5f3b de89 b53b
000000c0: c795 98bb 4a16 813b f3f4 cc3a f3ac 573b
000000d0: 335c f7ba aec4 d73b edef 97bb 3617 203b
000000e0: 2d48 0c3a e777 e2ba 64bd a0ba c9dc b8ba
000000f0: 2bb1 203b 191a 83bb f375 8f39 845a 80bb
0.00509895 -0.0061294227 0.017813558 -9.9802855e-05 -0.013406925 0.0067945947 0.0071170107 -0.0030002084
-0.0061014444 0.006189048 -0.0033774849 0.009172309 0.002901173 0.004912219 0.009758856 0.0009764933
0.00703533 -0.0031351582 -0.0036344752 0.0007731249 0.013506995 0.009378571 -0.008009668 -0.0123927435
0.0026991207 0.0011155356 0.0015354359 -0.0013530017 -0.004753089 -0.007673549 -0.0041280077 0.008302058
0.0023366304 0.00021226879 -0.0029234295 -0.00010548048 -0.001005546 0.0076876828 -0.017955724 -0.0098105455
0.00015813061 -0.0041307406 0.0028009927 -0.0006133022 0.0055891294 0.001814384 0.0034083456 0.0055401167
-0.0046565267 0.0039394246 0.0015636965 0.0032909482 -0.0018872082 0.0065847253 -0.0046367557 0.0024427897
0.0005351331 -0.0017278165 -0.0012263474 -0.0014103885 0.0024519663 -0.004000914 0.00027362964 -0.0039170403

weight f4 [64, 64]
00000000: 24a3 2e3c 002f ea3b 9e06 b03e 021e 9dbd
00000010: c86d 7c3d bd33 2d3d 933a 21bd 232f 203e
00000020: cfda a13b e0fa dbbb 050d e03c e10d 1bbe
00000030: 1078 d1bd 676c 973e 4306 11be 92a0 a5bb
00000040: 97df fe3a ec81 f63d b0ed 9f3d 0b81 333e
00000050: d42c 3c39 2736 ffbd a077 d6bc 6d6e 3dbe
00000060: b3e9 353e e777 d7bd ac6d cd3d f27d 723c
00000070: 9c19 85be d56d 4f3e 2d35 9fba 14a7 963d
00000080: 8308 22be f6de e4bd 4812 023e 57c6 12bd
00000090: 282b bcbb a452 023e b50e cdbd b756 543d
000000a0: a02c 5cbb c773 8b3c 9731 d6bd 2047 d33d
000000b0: 659d 78be bcd5 2a3e a7f2 26bc f230 e03d
000000c0: ca1b a8bd 3c7f a5bd ac6d 133b b32c 20be
000000d0: 94ef cb3d 7579 553e f70b 143e cb5b 9ebd
000000e0: a647 cfbd ec83 383e ddcd ecbd 6d16 6e3e
000000f0: 474d b13d efc7 83bd 9564 8f3c 4eca 35bd
00000100: 02b9 11be dd6a 8d3d 16a0 c1bb 089a 89bd
00000110: fb5b 333d 9665 1dbe c02d 29be d535 003e
00000120: 615f 95be 6fec cbba dba3 2dbc 331c 5d3e
00000130: f250 1d3e e68d 1ebe 14b8 58bb bdd0 92bd
00000140: e02b 48bc 1071 debc 4fe0 b9bd 334a 78bd
00000150: 0b2a bebd 876e 64bd 55db 503d 0edd 5fbe
00000160: ad85 ce3d b0f5 ab3c fe81 fa3d 9d1b 0a3e
00000170: 15a0 6a3c a529 c1bd 9e7d 7b3e 7309 fd3d
00000180: 2279 25bc 6479 143d a789 ef3d 8bab d4bc
00000190: 68bc 48be 3489 0fbe 2b6e 1e3d 7b4f 6e3e
000001a0: d6de 53bc 672e 553e 4000 133d 5c76 9b3d
000001b0: 2b8c 7f3e ee11 bb3d 079c 53be 7dd8 023d
000001c0: dd8f 1ebe fabc 51be eafc f2bd 0f87 c33d
000001d0: aaca 3f3d d630 4c3d 7546 4bbd db8a 17be
000001e0: b04b 0cbe 6dda fcbc 7a10 d5bd 6302 9e3d
000001f0: 2861 42be 2894 553d 216e 04be 931f 7d3d
00000200: c81e a33d 181f fb3d 3fc5 81bc 0085 193e
00000210: 2b85 7f3e c30a 35be 6a86 a1bd 0c62 363c
00000220: 3d41 083d a985 30bd 13dd c3bd 9dd2 70be
00000230: 1e96 9dbd 757b 61bd 0411 d5bd b61e 80be
00000240: 3377 f33c c624 33be a6e2 97bc 5541 27be
00000250: 5eb5 7dbd df41 0c3e 71ee 023e e084 0a3d
00000260: 422a 1fbd 5e35 99be b410 06be efe5 413d
00000270: 5dac 20bd 6fbc 603e f65a 5bbd 0ea3 29bd
00000280: 8f92 c73d a4e4 a4bc 28b3 42bd 749d 9b3d
00000290: cd65 123e a778 6bbd ff62 963c acfe aebd
000002a0: 9d64 843d 53c3 43bd 5ed3 6cbd 15b2 e53c
000002b0: d851 2cbe 0257 2abc 7d58 ab3d fe41 a4bc
000002c0: 0460 f63d 8b5f 193e f2ad 98bd 2582 80be
000002d0: 23ae 30be cf2e ff3d bb25 ed3d 8330 16be
000002e0: c4f3 c73d fa07 14bd c2bf 3d3d 2661 7b3e
000002f0: b089 2d3e 0eed 7a3e f254 6a3d 5fed 2b3b
00000300: ff52 85bd 4e93 06bd 771a 49be d842 2dbe
00000310: e91c 053d df8b 5fbd 23e8 ed3d e382 423e
00000320: 6adf ee3c b1d8 d6bd c9c8 47be 299f 06be
00000330: 7a63 64bd b8fd 08be cbfd 1fbb 0fdc a7bd
00000340: 0d58 963c 5376 cf3d 59f7 183e 07c1 eabd
00000350: 4123 d83d 3c3b e03c 1c9e cf3c ef01 153e
00000360: 9246 363d cf89 70be 3ecb 903d 37a0 47be
00000370: 04f3 753d 1e33 233e e6df 09be b20b a9be
00000380: 1f4a 28bd 6bcb 2c3d 96d1 453c bb1e 0bbe
00000390: 9536 67be 447f f2bd 0858 30bb 79e8 cdbd
000003a0: 9862 0abe d9f5 3abd 78c0 89bd f916 0c3e
000003b0: 01f9 c53d 1543 433e 1bfd 9f3c 5dba 843d
000003c0: a577 eb3d af7b 22be 3e6b 16be 3530 febd
000003d0: 29bb 31be 1b24 ec3a 5d45 013e f6bd 93bd
000003e0: 857d 313e 6a4d 8b39 4a4e 03be 4089 89bd
000003f0: 7601 1cbe ecb8 f33d b196 063e 70f9 0dbe
0.010659013 0.007146716 0.3438005 -0.07671739 0.061628133 0.04228567 -0.0393625 0.15642981
0.004939414 -0.0067132562 0.027349958 -0.15142013 -0.10227978 0.29574892 -0.14162545 -0.005054542
0.0019445297 0.120364994 0.07809007 0.17529695 0.00017945777 -0.124615006 -0.026180089 -0.18499155
0.1776493 -0.105209164 0.10030684 0.0148005355 -0.259961 0.20256741 -0.0012146585 0.073560864
-0.1582356 -0.11175339 0.12702286 -0.035833683 -0.0057424493 0.12726837 -0.10012571 0.05184051
-0.0033595935 0.01702298 -0.10458677 0.103163004 -0.24278791 0.16683096 -0.010189689 0.109468356
-0.08208425 -0.08080909 0.002249579 -0.15642051 0.09957805 0.20847113 0.14457689 -0.07732352
-0.10121088 0.18019074 -0.11562703 0.23250742 0.086573176 -0.06434619 0.017504016 -0.044382386
-0.14230731 0.06905148 -0.0059089763 -0.06718832 0.04378889 -0.15370783 -0.16521358 0.12520535
-0.2917433 -0.0015558134 -0.010598148 0.21592788 0.1536291 -0.15483817 -0.0033068703 -0.0716872
-0.012217492 -0.027153522 -0.090759866 -0.060617637 -0.09285363 -0.05576947 0.05099042 -0.2186167
0.100840904 0.020991176 0.12231825 0.13487096 0.014320393 -0.09431771 0.24559638 0.12355318
-0.010099681 0.03624858 0.11696177 -0.025960704 -0.19603121 -0.14017183 0.038679283 0.23272507
-0.012931546 0.20818482 0.03588891 0.07590935 0.24955814 0.09134279 -0.20664988 0.03194474
-0.15484567 -0.20482245 -0.11864646 0.09547245 0.046824135 0.04985126 -0.04962774 -0.14799063
-0.13700747 -0.030865872 -0.10403533 0.07715299 -0.18982375 0.052143246 -0.12932636 0.06179769
0.079648554 0.1226179 -0.015841125 0.14992142 0.24953143 -0.17679887 -0.078869656 0.011131775
0.03326534 -0.04309622 -0.09563651 -0.23517843 -0.07694648 -0.05504938 -0.10403636 -0.2502343
0.029719925 -0.17494497 -0.018540692 -0.16333516 -0.061940543 0.13697003 0.1278627 0.033818126
-0.03885866 -0.29923528 -0.13092309 0.047338422 -0.03922688 0.21946882 -0.053553544 -0.041415267
0.09744751 -0.020128556 -0.047534138 0.07598391 0.14296646 -0.05748811 0.018357752 -0.085446686
0.06464503 -0.047793698 -0.057818763 0.028039018 -0.16828096 -0.010396721 0.08366487 -0.020050999
0.12030032 0.14977853 -0.074550524 -0.25099292 -0.17253928 0.124601 0.11579462 -0.14666943
0.097632915 -0.03614042 0.046325453 0.24548778 0.16947055 0.24504492 0.057209916 0.0026234013
-0.06509971 -0.032855324 -0.19639002 -0.1692003 0.032498274 -0.05457675 0.11616542 0.18995242
0.029159267 -0.10490549 -0.19510187 -0.13146652 -0.05575893 -0.13378036 -0.0024412747 -0.0819627
0.018352533 0.101299904 0.14938106 -0.11462598 0.10553599 0.027371995 0.025343947 0.14551519
0.044500895 -0.2349007 0.07070015 -0.19494711 0.06004621 0.15937468 -0.13464317 -0.33016735
-0.041086312 0.042186182 0.012073895 -0.13585941 -0.22579415 -0.1184068 -0.002690794 -0.10054106
-0.13514173 -0.045644615 -0.067261636 0.13680638 0.09666634 0.19068559 0.01952987 0.064808585
0.1149743 -0.15867494 -0.14689347 -0.124115385 -0.17356552 0.0018016131 0.12624116 -0.072139665
0.17333038 0.00026569824 -0.12822834 -0.067156315 -0.15234932 0.119005054 0.13143422 -0.13864684

bias f4 [64]
00000000: 27d6 32bc 1a87 70ba 022d a8bb 7518 25bb
00000010: a8ef 85bb 1ccd 073c d054 a43b cb5a b63a
00000020: c699 f7bb 075f b63b e1b2 e5bb 4ddf 4c3c
00000030: 6a89 6e3c 2c5f 853b 99f1 bc3b 2732 143c
00000040: 37f5 18bc e2ba 113b ae2c c1ba 025e a9bb
00000050: f0b5 1abc 44d4 21bc b72a b1bb 8d22 3e3b
00000060: 484a 9bbb 7c50 ffbb 5ccd 733b 5e82 c3ba
00000070: 2e7e 2839 e6ec e13b 8f09 a03b 7730 5d3b
00000080: 879b aa3a 5500 0cbc 0a21 c03a 691f 9dba
00000090: 90bb d43b 27c4 b838 36ab e4bb 2dbc 073c
000000a0: 9883 c93b bbfe dd3a eefd 49bc 8d3c 0d36
000000b0: af1b 59bc 4155 133a 4791 c93a c8aa a83b
000000c0: 85d1 eabb 8b2c 3abb 4f64 823b 794e fbba
000000d0: e161 713a 03a2 0c3c b9a4 243b a583 d6ba
000000e0: e4e9 15ba 774b da3b 400f 543c 9813 9f3a
000000f0: fff6 29bc 90b8 d13b adac 4d3c 3d86 07bb
-0.010915316 -0.0009175405 -0.0051323185 -0.002519158 -0.004087407 0.008288648 0.0050149933 0.0013912556
-0.007556173 0.0055655274 -0.0070098494 0.012504411 0.014559129 0.0040701833 0.0057661054 0.00904516
-0.0093358075 0.0022236635 -0.0014738047 -0.0051686773 -0.009442791 -0.009877268 -0.0054067033 0.0029012293
-0.0047390796 -0.007791577 0.003720126 -0.0014916172 0.00016068734 0.0068946956 0.004883952 0.003375081
0.0013016321 -0.008545001 0.0014658284 -0.001198751 0.0064920858 8.81034e-05 -0.0069784177 0.008284611
0.0061497204 0.0016936878 -0.012328608 2.1045882e-06 -0.013251229 0.0005620309 0.0015378379 0.005147312
-0.00716609 -0.0028407897 0.003979243 -0.0019173167 0.00092080055 0.0085835485 0.0025122596 -0.0016366137
-0.00057187513 0.006661828 0.012943089 0.0012136577 -0.01037383 0.0064001754 0.012553376 -0.0020679377

weight f4 [64, 64]
00000000: c2c6 dd3d 3902 353e 8c3b 8ebb cf7d 3f3e
00000010: ac0a cdbc f154 04be cc7b 483d 8f4f 99bd
00000020: 6a25 8abe 6950 903d d209 143e 7b48 273e
00000030: b9e5 e1bb 3206 ea3d eb8f 74bd fb7a 323c
00000040: afcb 613e 0ef0 5d3d f07b bb3c a877 2cbe
00000050: 7bb5 c53d 4672 c23d b2bd 493e cedd 993e
00000060: 9a08 f9bc d3f4 8bbd eab1 dabd 668c fdbd
00000070: f9b5 83be 4ca7 fdbb 650b 113e a619 b3bd
00000080: 479f 9cbc 3f23 e5bc 71bd 5a3d e179 893d
00000090: a161 1f3e 24e8 09be c932 e9bd 3a84 843d
000000a0: af8f 0fbe 65cf 863d b2eb 8e3c ba44 4e3e
000000b0: 5d99 d0bd 55ed a3bd 45cd ff3d e36d ea3d
000000c0: 5762 af3d 87a6 173e ed53 e33d 4890 a0bb
000000d0: 64ad b83d 4a01 a33e ca86 61bb af35 8a3b
000000e0: 4492 bb3d 135f 1abc bc13 53be 206d d23d
000000f0: b859 cdbd 403c 1c39 be47 c93d a089 8d3d
00000100: 9dfd 1f3d f7e4 adbc 0076 53be 0045 8f3c
00000110: 3124 c0bd 149f 863d 0903 a8be 0adc 1ebe
00000120: db90 863d c3ce 463d 906a bdbc 912c 75bd
00000130: 04f3 153d 1326 9c3c 9003 133e b83e 14be
00000140: a94f f23d ca2e cfbd f215 10be 5d3a 1abe
00000150: 9e21 2c3d 6c5e a7bd cfa3 b6bc 75a2 54be
00000160: 3b1a bb3d b271 34bd 6e8a 24be 975d 41bd
00000170: 9d99 95bc dea1 313e 1214 e73c fcc9 bdbd
00000180: 6ab7 fc3d 0209 38be d618 f33c 4c34 22be
00000190: 9dec e43d 161b a9be a2ef 953d bff4 bcbd
000001a0: 05fa 6cbd 1963 05be 3ff4 5fbd 3e48 7fbe
000001b0: 1d1c 50be 815b 21be a14e 9d3d 6481 79b9
000001c0: df1d 543c d75a fc3d 1e1a 253d ff1c 2bbe
000001d0: 20d5 1aba 7975 8d3c 95f3 bb3d 6542 8a3e
000001e0: ebf8 003e 78d1 e93d 399f 1f3d aac3 9f3c
000001f0: ab73 973d a138 043e e006 30bd 6435 5e3c
00000200: cdd2 f3bc 5742 68be 63d9 183c 164e 7a3d
00000210: 3ddb 673d b64b 683e b151 c3bc 80c9 f73c
00000220: 1106 70bd b8a1 91bc c2f2 c53d 49d2 cdbd
00000230: 5c72 56bd 8a2c d93d f740 713d 7a53 d73d
00000240: ccc5 1bbc 58c4 2a3e b536 bd3e 7302 6d3d
00000250: 21ba 95bd 1f96 c2bd 2531 9f3d c599 863d
00000260: 2720 ec3d 5e97 1dbe 9539 35be 6784 043d
00000270: 8e59 a0bd a7b1 573d c497 973e 9871 893d
00000280: 7b89 8c3d a3b8 9b3d b9fc 0fbe 8b03 e4bc
00000290: b677 3ebe a2b2 6b3e 8838 6dbd 4e64 8dbc
000002a0: 8cca e2bd ae69 b13d e4cd c8bd 9870 f93d
000002b0: 5abe 9cbd d6b3 08be 9445 cfbd 3e88 273e
000002c0: 7222 31bc 1a42 05bd d52b 4b3e e99b 26bb
000002d0: 3f6d 0e3e fb64 51bd 0cf2 1d3d 3411 653e
000002e0: 2213 71bd e33d 9f3e 65de 863d 41f5 febc
000002f0: 0acd 393c 7ab5 81bd 623d 08be 6cdc 7bbd
00000300: 5350 0f3d fba1 1b3e 4bf5 31bd 0a3f f93b
00000310: e186 a8bd 1b5f 1b3e e3a7 05be 6eab 9fbd
00000320: 6741 bd3e e335 b4bc 1ad6 a2bd 9325 553b
00000330: 09d8 04be d284 04be e95a 8cbb 4f39 bd3c
00000340: aa62 df3d beae 38bc ce1e 103d 0b2d 313c
00000350: 2b44 0fbe c648 48be 3706 c93d 82a6 98be
00000360: 84c1 b2bc f9c1 123e abed ca3d c48b 1abe
00000370: 272b ffbc bdb3 ecbb c6c1 613d c85e 29bd
00000380: a43a e0bc 1609 143e b566 a6bd ba57 4fbe
00000390: 3e44 27bd 4200 70bc 689a bcbd 7523 173d
000003a0: d957 04be 9f4d 9a3d f874 843e 3d2e 3a3c
000003b0: e7ad bb3d 290f cf3d 100c 173d 1905 e33d
000003c0: 4081 b8bd 984b 41bd 9dda 873e fe14 1f3e
000003d0: b2c3 8c3d a055 42be ae2b 5d3d b3bf 8ebd
000003e0: 6471 f53d cab7 153e 8419 9c3d 202f 13bd
000003f0: 86ad 813d b816 7dbe dba8 c63d 7cf2 42be
0.10828926 0.17676629 -0.0043405946 0.18700336 -0.025029503 -0.12923028 0.048946187 -0.07485878
-0.2698167 0.07046587 0.14456871 0.16336243 -0.00689384 0.11426963 -0.059707563 0.010893579
0.22050355 0.054184012 0.022886246 -0.1684252 0.09653755 0.09494452 0.1970127 0.30052036
-0.03039961 -0.06833806 -0.10678466 -0.123802945 -0.25724772 -0.0077408906 0.14164503 -0.087451264
-0.019118918 -0.027970908 0.05340332 0.067127 0.15564586 -0.13467461 -0.113866396 0.06470533
-0.14019655 0.06582526 0.017446373 0.20143405 -0.10185502 -0.08004252 0.12490324 0.114467405
0.08563679 0.14809619 0.11099992 -0.004900012 0.09017447 0.3183692 -0.0034412616 0.0042178254
0.09158757 -0.0094220815 -0.20612997 0.1027472 -0.10026878 0.00014899764 0.09828137 0.069110155
0.039060224 -0.021227343 -0.20650482 0.017488956 -0.09381903 0.065733105 -0.32814816 -0.15513626
0.06570598 0.048537027 -0.023122102 -0.059856955 0.03660871 0.019061124 0.14356828 -0.1447705
0.118316 -0.10116346 -0.14070871 -0.15061326 0.042024247 -0.081723064 -0.022294907 -0.20765097
0.091358624 -0.04405374 -0.16068432 -0.047208395 -0.018261725 0.17346904 0.028207812 -0.09267041
0.12339671 -0.17972186 0.029674929 -0.15840262 0.11177943 -0.33028477 0.07321097 -0.09226369
-0.057855625 -0.13026084 -0.05467629 -0.24929902 -0.20323224 -0.15757562 0.07681013 -0.00023794692
0.012946575 0.12322014 0.04030811 -0.1671028 -0.0005906392 0.01726793 0.09177319 0.2700378
0.12594955 0.11416906 0.038970206 0.01950248 0.07395109 0.12912227 -0.042975307 0.013562534
-0.029763604 -0.22681557 0.009329173 0.061109625 0.056605566 0.22685131 -0.023842664 0.03024745
-0.058599535 -0.017777309 0.09665443 -0.10049874 -0.052355155 0.10604198 0.058899846 0.10513969
-0.009507608 0.16676462 0.369558 0.057863664 -0.07310892 -0.095012896 0.077730455 0.06572298
0.1152957 -0.15389773 -0.17697747 0.03235283 -0.07829581 0.052659657 0.29607975 0.067111194
0.0686216 0.07603576 -0.1406125 -0.02783372 -0.18600354 0.23017362 -0.05791524 -0.017259743
-0.11073789 0.08662735 -0.098048955 0.12179679 -0.07653494 -0.13349852 -0.10120693 0.16360566
-0.010811435 -0.032533742 0.1984094 -0.002542252 0.13908862 -0.051121693 0.038560912 0.22369844
-0.058856137 0.31101903 0.06585387 -0.031122806 0.011340389 -0.06333442 -0.13304666 -0.061489508
0.034988713 0.1519851 -0.04344682 0.007606392 -0.08228851 0.15172999 -0.13052325 -0.077963695
0.3696396 -0.021998351 -0.07950993 0.0032523617 -0.12973036 -0.12941292 -0.0042832983 0.023098616
0.109074906 -0.0112721305 0.035185628 0.010813962 -0.13990848 -0.19559011 0.098156385 -0.29814535
-0.021820791 0.14331807 0.09908613 -0.15092379 -0.031148506 -0.007223575 0.055116437 -0.041350156
-0.027371712 0.14456591 -0.081250586 -0.20248309 -0.040836565 -0.014648499 -0.09209138 0.03689905
-0.12924136 0.07534336 0.2587049 0.011363563 0.091640286 0.101103134 0.036876738 0.11084957
-0.090090275 -0.047191232 0.26533976 0.15535352 0.068732634 -0.18977976 0.053996734 -0.069701575
0.11984518 0.14620891 0.07622054 -0.035933614 0.06331925 -0.24715698 0.097001754 -0.19037813

bias f4 [64]
00000000: 98f8 023c bad7 4b3a 880b 04bb 3cae b5bb
00000010: 5e52 2dbc 378b 313c 3294 dfba abdd 313c
00000020: bc9a 3b3b 34f5 8abb 6b8d 563a e8e2 a43b
00000030: a918 c43a 8cb0 723b 2cb9 cbb8 cc3e 19bb
00000040: 4dbd d63b 6f27 823c 724b 12bc 7060 87ba
00000050: 2cb6 f93b edb4 103c 902f 03bc 6665 e93b
00000060: 552b 443c 9ef5 3dbc 2298 953c c04d b8bb
00000070: ebfc dc3b 5257 543b 5fe6 553b 1cc9 e4ba
00000080: a79c dfbb 2376 e5bb 8cdb df3a 991d 293c
00000090: 911c ad3b 7556 473b 3f42 0f3c 882a 3b3c
000000a0: 80ca 543b 8d0d 9b3a ff52 3e3b 8c8b 803b
000000b0: 9822 d73b 3fb2 08bc 34c5 6d3b dd6b 2a3c
000000c0: 1c99 af3b 9650 6bbb ab8f 123c f854 c93b
000000d0: ac64 bd3b 760b 7e3b 6257 71bb 7999 7e3b
000000e0: 519c 423c e37c 64bc 85a9 f0bb 306f 4aba
000000f0: 2388 ee3a abd0 113c eddc ce3a bba3 f63a
0.00799384 0.0007775981 -0.0020148475 -0.005544452 -0.01057872 0.010836414 -0.0017057715 0.010856072
0.0028626164 -0.0042406563 0.0008184525 0.005031932 0.0014960963 0.00370315 -9.714285e-05 -0.0023383377
0.006553328 0.015887944 -0.00892912 -0.0010328423 0.0076205935 0.008832199 -0.008006945 0.0071226833
0.011973222 -0.011594204 0.01826102 -0.005624503 0.0067440174 0.003240068 0.0032638533 -0.0017454955
-0.0068240943 -0.0070026084 0.001707898 0.010321998 0.0052829464 0.0030416523 0.008743822 0.011423714
0.0032469332 0.00118296 0.0029041169 0.0039228853 0.006565403 -0.008343278 0.0036280872 0.010401693
0.005358828 -0.0035906187 0.008945386 0.0061441623 0.0057798233 0.0038764155 -0.0036825766 0.00388488
0.011878089 -0.013945791 -0.007344427 -0.00077222567 0.0018198531 0.008899848 0.0015782394 0.0018817106

weight f4 [64, 33]
00000000: 9a4f bf3d c162 99be 2464 4a3e d108 8c3c
00000010: d168 b4bd e262 863d 2718 35be 3fe2 f53d
00000020: a86e 36bd 4bdf 52be c20c 513d 8d00 99bd
00000030: ca8a f33d 2f2b 92be 45c8 223e 75fe 2bbe
00000040: 96db d4be cb6c 843e 17d7 fdbd 03cd 8bbe
00000050: 6db2 37be b12b 2fbe 79f3 1fbe af70 56bd
00000060: bead 333e e0ac e4bc 7009 08bd cf67 bd3b
00000070: 01ac b13e f048 a2bd 361d 74bd c984 22bd
00000080: 3268 6bbd c02b b7bd df02 b53e 0c2a 783e
00000090: 2913 743d 2294 06bc 993f 22be f1cd 8cbc
000000a0: caad b23e 008e 9bbe 10aa f13d 119f 50bc
000000b0: 90dd 1cbd dd17 95bb a41f 72be b906 52be
000000c0: f3cc b43c e9b7 27be 1401 0dbe cec2 26be
000000d0: 0c04 7a3d 08dd 073e 08f1 29bd 3bce ee3d
000000e0: 591f ec3d e7cc 0fbd 89d1 4c3e 8676 69be
000000f0: d0a3 393c d359 863e 4ee9 42be 9739 82be
00000100: 3702 8dbd d05b bfbc 42ed 73bc 2465 ed3e
00000110: 8e5d 5dbc 8422 f63c 6bee 013e 365e 7abd
00000120: 3dc4 093e a9f5 9b3d 0d0d 7fbe 5734 b5bd
00000130: bf0e 02be a6dc 803d fe56 b13c d8ad ad3d
00000140: cde5 01be 43a4 4cbe b072 233e 3378 ec3c
00000150: 5f26 c73d 3d82 d23d 0f3c d0bd 965f f43d
00000160: 7145 04bf bc77 cb3d c84f c33e 5aa2 123d
00000170: 247f 02be bdf8 4abe 893b 5c3e 3460 873d
00000180: d785 ce3d 6f6a be3d 8851 f23d 4aba 19be
00000190: e458 a7be 6a25 c4bc 6985 2a3e 0592 40be
000001a0: 4e01 1cbe 97ca c43e 4623 97bd b72e 8ebb
000001b0: 9eed 9d3d 0e66 4a3d 1fce fdbd adfd b73d
000001c0: 9309 06be a813 da3c 1dcc 4bbd c475 babd
000001d0: 4568 ef3d 935d d6bd 1cd4 40bb 7930 b7bd
000001e0: 59c8 ed3d 849f a9be 9ff7 a6bd 252c 233d
000001f0: c66c 1f3e afbd ddbe 4fe1 88bd 9068 cfbe
00000200: 684f 33be dc07 0fbe a439 f93b 9a61 3fbe
00000210: 2afc 503e 190c 663e 0ca9 483d 045c f9bd
00000220: ef07 66bd c38f 003e 0525 273e 5117 3a3e
00000230: 9006 9c3e 0812 88bd 1acf 6a3e a6c8 c9bd
00000240: 6eed 78be 8411 9abe 58e5 be3d 60f9 f3bd
00000250: 1043 0f3e 4b52 c13d 0865 2e3c 6193 a33d
00000260: 093e 5cbc ce34 2cbe d1cb c63e 77fe 4cbe
00000270: 6c96 5d3d e461 54bd 5e13 21bd 0a11 973d
00000280: bec2 b83e bfa3 18be 5c91 44be 5afd 3f3e
00000290: 1a3e 49be 2743 bb3d b4f7 883e cb43 c43d
000002a0: cd1d 7f3e 6955 ea3c 6225 a6bc 5940 0e3e
000002b0: 1400 b53d d860 213d 4310 27bd b664 b2bd
000002c0: e582 c63c 96f4 553e 99a8 01be 8ad5 9d3d
000002d0: a269 a8bd 2186 76b9 d9da 0fbe 4b02 3c3c
000002e0: 2794 833e 436b dd3c 05f1 393d 4315 333e
000002f0: 3497 af3d f8a4 c0be a2ba bfbe 7f2d e03d
00000300: e949 ac3e 2273 4b3e 04ed 9e3e a421 ef3d
00000310: 0f66 9e3c d956 a1bd c33c 58be 3429 d33d
00000320: 6328 7c3e 18c5 003e 4722 373e 3774 613c
00000330: 8cc2 3b3c 0d8d ad3d 5263 ebbd cfdc bf3a
00000340: 0b8b 313e c771 8f3a 3470 933c 9f34 bb3e
00000350: 5029 3e3e 6ccf 853e 65bb 873e 8442 6ebe
00000360: 8356 88be 9cbd 863e 0d5f 53be 0542 3abe
00000370: 48dc 26bc e608 583d 811a 143d 74a8 663c
00000380: d6f8 aabd 76af d1bd 8aa5 64be 8e4a 3c3d
00000390: bcf4 08be 5d14 ac3e 730b d3bc d475 8d3e
000003a0: 4dec c4ba c91f 9fbd a67d 453d 2195 c0be
000003b0: 2bc8 543e d4bc 9ebe 622e f43c 3e85 153c
000003c0: 1283 a73c a9d8 643d 952d 9f3d b06e f63d
000003d0: fc84 4d3e 8129 bf3e c8bc 88be ef00 c7bd
000003e0: 654b 883c c3ad 76be 92b3 d5bd 3fd7 4e3e
000003f0: 607d 71bd db3a 05be 908d 213e aca6 463e
0.09341355 -0.29958156 0.19764763 0.017094048 -0.08809055 0.06561829 -0.17684995 0.12006044
-0.044539124 -0.20592992 0.051037557 -0.07470808 0.11891706 -0.2854857 0.1589671 -0.16796286
-0.4157378 0.25864252 -0.12394541 -0.2730485 -0.17939158 -0.1710651 -0.15620221 -0.052353557
0.17546746 -0.027914464 -0.033212125 0.005780197 0.3470154 -0.07924068 -0.05959817 -0.039677415
-0.057472415 -0.089438915 0.35353753 0.2423479 0.059588585 -0.008214029 -0.15844573 -0.017188044
0.34898216 -0.30381775 0.11800015 -0.012733237 -0.038297236 -0.004549964 -0.23644882 -0.20510377
0.022070384 -0.1637875 -0.13769943 -0.1628525 0.061039016 0.1326791 -0.04148963 0.11660429
0.115294166 -0.03510752 0.20001806 -0.2279912 0.01133056 0.26240405 -0.19034311 -0.25434563
-0.06885188 -0.02335921 -0.01488811 0.46366227 -0.013511075 0.030045755 0.12688605 -0.061125003
0.13453765 0.07615215 -0.24907322 -0.08847874 -0.12700938 0.06292085 0.021647926 0.08480424
-0.12685318 -0.19984536 0.15961719 0.02886591 0.097241156 0.10278747 -0.10167705 0.11932294
-0.5166846 0.09934947 0.38146806 0.03579936 -0.12743813 -0.19821449 0.21507086 0.06610146
0.10084122 0.09297644 0.11831957 -0.1501247 -0.32685006 -0.023943622 0.16652454 -0.18805702
-0.15234873 0.38435814 -0.07379775 -0.004339065 0.077113375 0.049413733 -0.1239283 0.08983932
-0.1308959 0.026620701 -0.049755204 -0.09104493 0.1168981 -0.104670666 -0.0029423302 -0.08944792
0.11610479 -0.33129513 -0.08152699 0.03983702 0.15568838 -0.4330878 -0.06683599 -0.40509462
-0.1751076 -0.13967842 0.0076057483 -0.18689576 0.20408693 0.22465552 0.04898934 -0.12175754
-0.05615991 0.1255484 0.16322716 0.18172957 0.30473757 -0.06644064 0.22930565 -0.09852724
-0.24309322 -0.30091488 0.093210876 -0.11912799 0.13990426 0.09439524 0.010644205 0.07987095
-0.013442525 -0.16817018 0.38827375 -0.20018946 0.05409853 -0.05185117 -0.03932511 0.07376297
0.36086076 -0.14906214 -0.19196075 0.1874899 -0.19652596 0.09143668 0.26751482 0.09583243
0.24913712 0.02860518 -0.020281497 0.13891734 0.088379055 0.039398998 -0.040786993 -0.08710615
0.024232337 0.20894083 -0.12661971 0.07706745 -0.08223273 -0.00023510355 -0.14048328 0.011475156
0.2569897 0.027028685 0.04539587 0.1748858 0.085737616 -0.3762586 -0.37447077 0.10946178
0.3365014 0.19868138 0.31040204 0.11676338 0.019335775 -0.07877893 -0.21116929 0.10310593
0.24624781 0.12575185 0.1788417 0.013760618 0.011459958 0.08474169 -0.11493553 0.001463795
0.17338197 0.0010943942 0.017997839 0.36563584 0.18570447 0.26134813 0.26510158 -0.23267561
-0.26628503 0.26316535 -0.20641728 -0.18189247 -0.010184355 0.05274286 0.03615809 0.014078248
-0.08348243 -0.10238545 -0.22328773 0.04596954 -0.13374609 0.33609286 -0.025762295 0.27628958
-0.0015024036 -0.077697344 0.04821553 -0.37613776 0.20779483 -0.3100344 0.029807273 0.009126006
0.020448241 0.055870686 0.07772366 0.12032831 0.20070261 0.37336352 -0.2670653 -0.09716975
0.016637513 -0.24089722 -0.10434641 0.20199297 -0.058957458 -0.13010733 0.15776658 0.19399518

bias f4 [64]
00000000: 91d0 933d 3af2 34bd 9bfb 22bd 264a 0d3d
00000010: 3c86 943c 97bb 76bd be66 623d e860 573a
00000020: 5c96 05bd e8dd 5c3d f2a8 723d ce7c 0f3d
00000030: 3fd3 09bc 8c47 86bc bddc eb3c d38b 023d
00000040: 0f8d 87bd 3cd4 d53b 53b6 8d3c 0d8e d3bc
00000050: 13ad a13d a195 0e3c a909 953d b2cc 53bd
00000060: e067 f13c d493 0fbd a682 1e3d 4c3d 463d
00000070: f380 75bd f5a0 a63d f470 9dbc 13ae 1cbc
00000080: a966 24bd 17dd cebc e578 693d 63d5 83bc
00000090: a062 25bd 6b77 933d 73a9 333d bec6 be3c
000000a0: 8297 83bd 9e73 8f3d 99b7 063d ad99 603d
000000b0: 1b8f c2bd 762c f43c 0887 8e3d 6f65 88bd
000000c0: baae 81bd f66d fa3c f6c4 da3c 8368 d3bc
000000d0: 29ea 203c 5df2 9ebc ca7b 313d 53d9 b63d
000000e0: fda4 4bbd 4e97 9b3d 6776 0e3d 7c4b a13d
000000f0: cc53 4cba 3491 073d 5b7f e43c 5cde 3f3d
0.07217515 -0.044176318 -0.03979073 0.03449454 0.018130414 -0.060237493 0.055273764 0.0008216039
-0.032614097 0.053922564 0.05924315 0.035031132 -0.008412181 -0.016391538 0.02879178 0.031871628
-0.06618702 0.0065255444 0.017298853 -0.025824571 0.078943394 0.0087026665 0.07277233 -0.051708885
0.029468477 -0.03505309 0.038698815 0.0483983 -0.05993743 0.08136169 -0.0192189 -0.009562987
-0.040136967 -0.025251908 0.05700006 -0.016092962 -0.04037726 0.072005115 0.04386277 0.023288127
-0.06425382 0.07004474 0.032889936 0.054834057 -0.094999515 0.029806357 0.06959349 -0.06659972
-0.063321546 0.030570012 0.026705246 -0.025806671 0.009821453 -0.019402677 0.043330945 0.0892817
-0.049717892 0.075972185 0.034780886 0.078757256 -0.0007794469 0.03309746 0.02789276 0.046842918

weight f4 [64, 64]
00000000: 4aa7 453e 7f17 233e 8333 02bd c40c 643d
00000010: 445e ac3e 0f61 f2bb f4f3 453e ec12 e93d
00000020: 0385 cd3d 713f 6fbd 0c3f 7abe 3db2 3e3e
00000030: 52f5 603e 2782 f6bd dcf2 c03d d16b 98bd
00000040: 290c 1a3e 1d45 ac3d f4d1 f53b 2db3 1b3e
00000050: b38e 74bd 02ea 01bd b95e 0ebd d328 87bd
00000060: 2de6 ea3d a1ae 163b ecac 94bb 7794 7cbd
00000070: 65e4 223d c3df 2dbe 5e3e 3fbd ca0b b53d
00000080: c3c8 a43c 69b3 7d3d 3c66 e93d bb3f 91bd
00000090: 9d5e 8ebe f828 b33e a8dc f23c e285 8ebd
000000a0: e941 243e ff6e 393d 32dc cfbe 1f93 c0bd
000000b0: c70d 0a3c e4af e83b 073f ae3d 63c0 b63a
000000c0: dcd7 c4bd 33be be3d 28b3 cfbd 8e33 cbbd
000000d0: d31f b0bd 83be 1dbe c060 9ebc 2be4 283b
000000e0: 9ec8 483c 9b41 19bd 7a6d 0ebe 0139 ecbb
000000f0: 1c8c ba3d a9f8 2cbd a806 773d c640 063d
00000100: 04e6 b6bb 4463 3c3e a639 b13d dfc1 babc
00000110: 34a6 2ebd 22bf b6bc f65a 19be f1e2 5f3e
00000120: 05b5 173e 6f57 dabb 13af 99bd b7ee ffbd
00000130: 3586 66bd ce32 023e d267 a53d 0b77 aabc
00000140: 8b70 403d 761b 5f3d 1891 8f3e 46c5 60be
00000150: b519 803e f0e3 9e3c b8fe 8c3e cdad 17be
00000160: d186 4e3d 3ec7 b5bd e08a b3bd 4663 a93a
00000170: 4adc e53d 32db 933d 1fee 96bd f890 8ebc
00000180: 05bf 803d 7d07 a83d fb9c d83d bc8f e33c
00000190: 726f 293d 8e51 cfbd 487f 7ebd b567 59bd
000001a0: bb0c 083d 1f61 d43c 3517 5f3b 4a08 96bd
000001b0: ce25 0f3d 308d 38be 5598 e4ba 188a 963d
000001c0: f9cc 003e 2532 07bd 80ec 0cbe bf11 0e3e
000001d0: 0431 49be 5a57 96bd baff 21be 8749 883d
000001e0: 0ce4 fc3d d9be b8bc 2c70 0bbc 082b 9b3e
000001f0: e962 bf3d 09eb 18be 0270 a7bd a550 a23e
00000200: 4955 283e 0018 8fbd b19f 43bc bfe2 e2bd
00000210: 79f4 953c 447d 1b3d c04d 0d3e 58e0 96bc
00000220: d262 2d3e 7f24 4abe cbef 9bbd 638a 0ebc
00000230: 6487 aabd f693 78bd 6f59 e43d f642 b1bc
00000240: 01dc a93e 7d74 23be 02e8 263d 8c0c d03d
00000250: 5491 593d 5b6a 7dbc 60f6 303b 106d e2bd
00000260: 5826 8ebd 596b 08be 3dc2 a03d fb09 79bd
00000270: 5539 9d3d 7b74 07be 6f30 84bd 8430 e8bd
00000280: 3e12 fa3c f13c b5bd 5d10 d93d fdf4 053d
00000290: e294 3dbd 33dc c5bc fee6 403c 7103 4cbe
000002a0: 7402 babd 4cee 09be 05cb a93d 5c8b b6bd
000002b0: 4320 053e e0a4 d8bd 5f43 a93d b082 24be
000002c0: 4c18 2b3e abef ed3d 2a30 033d 36e6 c4bd
000002d0: ef64 bd3d 7d51 a73c 6020 f03d 9eca 1fbd
000002e0: 85bf 75be fd58 a1bd 85b1 a4bc b29f abbd
000002f0: 587c 7e3e c994 babe 1027 683d 82c4 81be
00000300: 825a 5abe 250c 5cbe 4bdb 6bbd 272f b93d
00000310: dc4c 5bbc f90a dfbd 451c 133e b220 813e
00000320: e233 153e 8b55 cebd 5373 1f3e a8c6 19be
00000330: ac87 02be fbf5 403e 57bb edbd 0fea c9ba
00000340: 3746 573d 4672 debb e0d7 a63d 9977 4a3e
00000350: 1c81 623e 83ad 233d dc95 ac3c b931 7e3d
00000360: ca38 f7bb 43c3 11bd 6a59 e839 10a3 1ebe
00000370: 6dfa 473e 5548 2d3e 9146 9a3d 7ba5 3abe
00000380: b1a5 563e f968 003e 6ecb d33d 5359 023d
00000390: c6fa b7bd 2e33 26be bd1b e33d afd8 19bc
000003a0: a50e 9bbd 8db4 a3bd 80f5 1a3e b2ad 003e
000003b0: 4038 a1bc e231 c3bc 4f9c ce3d 8ab3 74bd
000003c0: 3bf3 fd3d e92d 693d 0062 b23b e657 4c3d
000003d0: bfc7 243e 876f 9dbc 4bdf 33be ce0b babd
000003e0: f767 2d3e 55c4 6c3e aa0c c13e 09b6 41bd
000003f0: 9e38 8a3c ee80 6c3d 444f ce3d bb75 fabc
0.19302097 0.15926932 -0.031787407 0.055676237 0.3366567 -0.007396824 0.19331342 0.11380562
0.100351356 -0.05841011 -0.24438113 0.1862268 0.21968582 -0.12036543 0.09421322 -0.07442439
0.15043701 0.0841162 0.007501835 0.15205069 -0.0597064 -0.031717308 -0.034758303 -0.065995835
0.11469684 0.002299227 -0.0045372155 -0.061665025 0.039768595 -0.1697989 -0.046690337 0.08840139
0.020115262 0.061938677 0.11396453 -0.07092234 -0.2780656 0.34992194 0.029646233 -0.0695913
0.16040768 0.04527187 -0.40597683 -0.09403061 0.008426136 0.007101046 0.08508115 0.0013942834
-0.096114844 0.09313621 -0.10141593 -0.09921943 -0.0859982 -0.15404706 -0.019333243 0.0025770764
0.012254862 -0.037416082 -0.1390895 -0.007208944 0.09108755 -0.04222933 0.060309082 0.032776617
-0.005581619 0.18397242 0.08653574 -0.022797523 -0.042638972 -0.022307936 -0.14976105 0.21863915
0.14815147 -0.006663255 -0.07504096 -0.12496703 -0.056280334 0.12714693 0.08076443 -0.020808717
0.04698233 0.05446955 0.28040385 -0.21950254 0.25019613 0.019395798 0.27538085 -0.14812393
0.05042154 -0.08875893 -0.08766723 0.0012923263 0.112236574 0.072195426 -0.07369637 -0.01740311
0.06286434 0.08204553 0.10576817 0.027778499 0.04136605 -0.10122977 -0.062133104 -0.05307742
0.033215266 0.025925217 0.0034040932 -0.073258 0.034948163 -0.18022609 -0.0017440418 0.07350558
0.12578191 -0.033006806 -0.13762093 0.13873957 -0.19647604 -0.0734088 -0.15820208 0.06654649
0.12348184 -0.02255194 -0.008510631 0.30306268 0.093450375 -0.14933409 -0.08175661 0.31702152
0.16438784 -0.069869995 -0.011939929 -0.11078405 0.01830505 0.03796126 0.1379919 -0.018417522
0.16932228 -0.19740485 -0.07614096 -0.008699986 -0.08326605 -0.06068798 0.111498706 -0.021638375
0.33175662 -0.15962406 0.040748604 0.10158643 0.05311711 -0.015467252 0.002700232 -0.11055958
-0.06940907 -0.133222 0.07849548 -0.060800534 0.07676951 -0.13228028 -0.064545505 -0.113373786
0.030526277 -0.08849514 0.10598824 0.032704342 -0.046284564 -0.02415285 0.011773823 -0.19923188
-0.09082499 -0.1346981 0.08290676 -0.089132994 0.13000588 -0.105783224 0.08264803 -0.16065478
0.16708487 0.11617979 0.032028355 -0.09614222 0.09247767 0.020424599 0.11724925 -0.03901159
-0.2399884 -0.07878301 -0.02010418 -0.08380069 0.24852121 -0.3644164 0.056677878 -0.25345236
-0.21323588 -0.21489008 -0.05758218 0.09042197 -0.013385024 -0.10890765 0.14366253 0.25220257
0.14570573 -0.1007491 0.15571336 -0.15017188 -0.12747067 0.18843834 -0.11607998 -0.0015404838
0.052557196 -0.006788525 0.08146644 0.19772185 0.22119564 0.039960396 0.021067552 0.062059138
-0.0075446116 -0.035586607 0.00044317107 -0.15491891 0.19529124 0.16922124 0.07532991 -0.18227188
0.20961644 0.12540044 0.103415355 0.031823467 -0.08983378 -0.16230461 0.11089275 -0.00939004
-0.075711526 -0.07993422 0.15132713 0.1256626 -0.019680142 -0.023827497 0.10088407 -0.059741534
0.12399908 0.05692855 0.0054438114 0.049888514 0.16091822 -0.01921822 -0.17565648 -0.09084283
0.1693419 0.2312177 0.37704974 -0.047292743 0.0168727 0.057740144 0.100737125 -0.030573716

bias f4 [64]
00000000: 4b69 a3bd 0ac0 43bb b9f8 a4bd 5e93 903d
00000010: 3af1 9cbd c624 e63c 416d 753d befe 243d
00000020: ef8b 65bd 54e8 7dbd 1ade 82bd 13ef 1dbd
00000030: f3b2 1a3c 0a3e a6bd 5ea0 6a3c ec24 acbd
00000040: b0df 813d c90e a3bb 3a01 febc a270 89bd
00000050: 512e 793c e384 cfbd ee36 9f3d 80ef cd3c
00000060: fe63 603d 5105 ce3b ffff 9bbd 4986 cebc
00000070: 9a7e 7e3d 5ac1 8c3c e91b a03d 2741 6a3d
00000080: 0544 b23d df99 6c3d d5f2 613d 9266 1a3d
00000090: 28b2 c8bc 2136 89bc 79fa b9bd a028 61bd
000000a0: a0ac 77bd 5f10 b13d 391a 60bc a93e 82bd
000000b0: 71ef 3a3d f7a2 acbd 4f90 4a3d ee84 3a3d
000000c0: f55e 823d 07d8 9cbd 3189 da3a e1fe 97bd
000000d0: 4193 953d d817 cbbd c8c7 b43c 2bfb b1bb
000000e0: 5bdb 743d 40b0 8d3d 862e 91bd 6009 783d
000000f0: 52fa 1f3d ec64 8fbd ba8c 46bd 9b0c 9b3d
-0.079790674 -0.0029869103 -0.080552526 0.07059358 -0.07663198 0.028093707 0.059918646 0.040282004
-0.056041654 -0.061989143 -0.06390019 -0.038558077 0.009442079 -0.08117302 0.014320461 -0.0840548
0.06341493 -0.0049761278 -0.031006444 -0.06710936 0.015208797 -0.10132768 0.07774149 0.025138617
0.05478286 0.006287255 -0.07617187 -0.025210517 0.062132455 0.017182041 0.078178234 0.05719104
0.0870438 0.05776393 0.055163223 0.037695475 -0.024499014 -0.016749443 -0.09080977 -0.054970384
-0.060467362 0.08645701 -0.013678127 -0.06359608 0.045638505 -0.084295206 0.04945403 0.045536928
0.06365768 -0.076583914 0.0016672966 -0.07421661 0.07303477 -0.09916657 0.02206792 -0.005431553
0.059779506 0.06918383 -0.07088952 0.060555816 0.039057083 -0.07001671 -0.04847405 0.07570764

weight f4 [64, 64]
00000000: c1fa b3bd 6c08 973d 850b fd3d 9803 a0be
00000010: b5d7 123e 804d d83d 6abe febd c44d 063c
00000020: 2b91 723d 8095 42bc ddda af3d bc62 edbd
00000030: a8be 79bc 5286 993e ab82 2a3d ccef 253d
00000040: 33ae bb3c 860a 133e 249c c7bd 8ca1 8fbd
00000050: e455 693e 1bd0 1e3e ad5a 3bbe 41e0 2abe
00000060: 1ea0 5bbd 20f8 8cbd cf4e d53c 70e0 aa3d
00000070: 4342 02bc bbf5 ddbd f98d 193e f010 fdbc
00000080: e165 8dbd 5533 1bbe e0b2 4bbe 7713 40be
00000090: 513b 30bd 314a 7dbc e02b 2e3e 833f 5dbc
000000a0: fd91 0e3e de19 8bbc 2dff 373e 75d6 933c
000000b0: 685c 6d3c fef0 d6bd 390d 9dbc bcc5 80be
000000c0: 4060 e0bd a5e2 3a3e 9730 1d3c 7f0e 84bd
000000d0: de61 523e 5d61 9aba 8075 d6bd 6313 c2bd
000000e0: d160 303e 305e 15be 65bd ca3a 8517 363e
000000f0: 8eb6 b73c 88ac 69bc 4c1a 9a3c 0f77 25bc
00000100: 90a6 97bc b26b 14be 80ed 2cbe 032d 5c3e
00000110: dec3 373d 4da4 f03d fc19 d03c 278d 9dbc
00000120: e410 06be 595c a73b 481d cebd 37b0 fe3d
00000130: 61df 053e da25 d43d 3402 0c3d 9324 49bd
00000140: f764 273d e7ea 833d 5fc1 78bd de19 163d
00000150: 4944 b3bd 8035 fb3c 1a05 2abe cbed 19be
00000160: 4025 023d 44a4 9abd 4461 4cbc 1187 28be
00000170: c7d3 003d 6cce 07bd b851 af3d d636 05be
00000180: 205a b2bd d931 093e 10ee 253e b380 c73d
00000190: 7cd1 74bd 6628 533e 4676 ff3d ecef 13be
000001a0: 1a6b 09be 9e74 08be e07f cf3d 1259 90bb
000001b0: ca03 c1bd 5a04 a4be 5e77 79be b383 0a3e
000001c0: dcd6 a63d 7220 0c3e 9646 2a3e 4458 22be
000001d0: cac2 19be 96d5 c23c f05a e33c b3d7 cd3d
000001e0: 8e9a 47be bba9 d4bd 6a01 6c3d 9709 f83d
000001f0: 549f a5bd c3e4 dcbd 4d2a fa3d 9988 9bbe
00000200: e14e 57be cf11 943e 32dc 7dbd d2d6 0f3e
00000210: 8efe 8fbd a3d7 c53d 8270 70bd db71 c0bd
00000220: cb7f ee3d 20cf d83d 1a8a 843d 8f0b a63c
00000230: 1af9 29bd 4b56 00be 827d 89ba 7e19 3f3d
00000240: 6a64 1ebe 5c62 d13d a3f1 7ebd 7c1b 1ebe
00000250: 737f c43d 9b5f 4ebd 0370 7dbd aba2 973c
00000260: bea8 b43d 953f 1bbe 079f cdbd 0bd2 a0be
00000270: f803 a5bd 0f7a 173e 1ca5 05be 5efe 73bd
00000280: e220 cdbd 27c8 1e3c 6e63 9ebd 1c09 283e
00000290: 3be1 e0bd 585d 88bd 729e dc3d e88e 5a3d
000002a0: 04c1 1a3d b28c 50be 6ec6 80be 6e8e 83be
000002b0: a6e0 3cbd af46 7f3b 41a0 a23d a0f7 4f3d
000002c0: e5a7 00be 3505 823e 52a6 0a3e b7e8 173d
000002d0: 9ef7 803d b47d a03c 04c5 a23c 300c 133d
000002e0: 3b37 bd3d 09f7 ea3d 0662 e9bd 9fa9 c2bd
000002f0: 65ca 533d a08e 92bb 4ad9 0d3e 61c9 6c3e
00000300: a6bd 883d c328 b5bd 62f8 4a3e 28b4 ce3d
00000310: 5c00 f03d 3f07 cc3d ab0b bdbd c440 113e
00000320: 6cfd fa3c f4bc f4bd c07a 1c3e 33ea 8e3b
00000330: 4659 ab3d 7577 b8bd 06f7 9a3d 4c4b 843e
00000340: b925 253d bf67 9fbd 3db7 23bc 03de b13d
00000350: 816b f9bd 3d14 203c 6bfd 93bc c0cc 64bc
00000360: 7ceb 1fbd 0fbb 29bd 4750 c7bd 3723 893b
00000370: e525 ce3d 8a66 8dbe 518f 39be ae18 a6be
00000380: 51c8 df3c 4638 18bd 99e2 49bd b101 9a3d
00000390: aedc 02be cb02 e6bd 7c9d 463c cbb6 00be
000003a0: c902 013d 997c 293d 758b 8d3d 25e4 763c
000003b0: 261f 25be 5a5e 8d3c e0b3 f7bd 9a22 e0bb
000003c0: a74d c23d 0230 49bd b78b 8e3e 8c61 b93d
000003d0: 88e1 4bbd 585a f1bd 8768 4ebd a831 7d3d
000003e0: 93bd 613e ecf8 3abd 430d 41bc fcc7 7e3e
000003f0: 56c6 233e 76f0 493e e428 8e3e 9be8 51be
-0.08788062 0.07374653 0.12355713 -0.31252742 0.14340098 0.10561657 -0.12438662 0.008197252
0.059220474 -0.011876464 0.08586667 -0.11591098 -0.01524321 0.2998529 0.04162852 0.04051189
0.022910213 0.14359483 -0.09746578 -0.070132345 0.22786671 0.15509073 -0.18296309 -0.16687109
-0.053619497 -0.068832636 0.026038555 0.08343589 -0.007950368 -0.10837885 0.14995565 -0.030891865
-0.069041975 -0.151563 -0.19892454 -0.18757425 -0.04302532 -0.015459583 0.17008924 -0.013503912
0.13922878 -0.016980108 0.17968436 0.018046597 0.014487363 -0.10495184 -0.019171344 -0.2515086
-0.10955858 0.1825052 0.009594104 -0.064480774 0.20545146 -0.0011778284 -0.1047163 -0.09476354
0.17224433 -0.14586711 0.0015467821 0.1778241 0.022425916 -0.014262326 0.018811367 -0.010099187
-0.01851204 -0.14494208 -0.16887474 0.21501546 0.044864528 0.11750088 0.025403015 -0.019232346
-0.13092381 0.0051074442 -0.10064179 0.12435954 0.13073494 0.10358782 0.03418179 -0.049107146
0.040867772 0.064412884 -0.060731288 0.036645763 -0.08753259 0.03066516 -0.16603509 -0.15032117
0.031773806 -0.075508624 -0.012474362 -0.16457774 0.031451967 -0.033155844 0.085605085 -0.130092
-0.08708596 0.13397922 0.16204095 0.09741344 -0.059770092 0.2062088 0.12473731 -0.14446992
-0.13419762 -0.13325736 0.10131812 -0.0044051493 -0.09424551 -0.3203457 -0.24361941 0.13526802
0.0814645 0.13684252 0.16628489 -0.15853983 -0.15015712 0.023783486 0.027753323 0.10050907
-0.19492552 -0.10383936 0.057618536 0.12111204 -0.0808703 -0.1078582 0.122150995 -0.30377653
-0.21026184 0.28919837 -0.061977573 0.14046791 -0.07030974 0.0966027 -0.058701046 -0.09396716
0.11645468 0.10586381 0.06471653 0.020269183 -0.041497327 -0.12532918 -0.0010489675 0.04665517
-0.15467992 0.10223839 -0.06224216 -0.15440172 0.095946215 -0.050384145 -0.0618744 0.018510183
0.088212475 -0.15160973 -0.10040098 -0.3141025 -0.080573976 0.14792655 -0.13051265 -0.059568755
-0.100160375 0.009691275 -0.077338085 0.16409725 -0.10980459 -0.06658429 0.107724085 0.053358942
0.03778173 -0.20366171 -0.2515139 -0.25694603 -0.04611268 0.0038952043 0.07940722 0.050773263
-0.12564047 0.25394598 0.13540009 0.03708717 0.06297229 0.01959119 0.019869335 0.035900295
0.0923905 0.114728995 -0.113956496 -0.09505009 0.05170669 -0.0044725686 0.1385242 0.23123695
0.066767976 -0.08845665 0.19821313 0.10092956 0.117188185 0.099623196 -0.09230741 0.14184862
0.03063842 -0.119501024 0.152812 0.004361415 0.08366637 -0.090071596 0.07566647 0.25838697
0.04031918 -0.0778346 -0.009992418 0.086849235 -0.12178708 0.00977045 -0.018065175 -0.013964832
-0.039042935 -0.04143816 -0.097321086 0.004185106 0.100658216 -0.27617294 -0.18121077 -0.32440704
0.027317198 -0.03716304 -0.049288366 0.07519854 -0.12779495 -0.112310015 0.012122508 -0.1256973
0.031496797 0.04137859 0.06911365 0.015069042 -0.16125163 0.017256904 -0.12094855 -0.0068400623
0.09487467 -0.04911805 0.2784097 0.09051809 -0.04977563 -0.1178481 -0.050392654 0.061814934
0.22044973 -0.045647547 -0.011782947 0.24880975 0.15993628 0.19720635 0.27765572 -0.20498888

bias f4 [64]
00000000: 8175 cabd 2f99 bfbd d766 993d 6907 9e3d
00000010: a666 973d 18ed 853d e650 983d 9797 a3bd
00000020: 74de 99bc d61f 9e3d 16ed 953d 1927 943d
00000030: dae2 763d 38db 9d3d a037 bcbd 89d9 cbbd
00000040: a981 953d 5efa b53d b8ef b0bd b60e 983d
00000050: e6ee 8d3d 4b12 b4bd 6624 8c3d 8c9a a63d
00000060: aa13 9fbd a5ed 983d 9f4e af3d 1387 a4bd
00000070: e506 a23d c8de c4bd aa49 a53d 4154 a8bd
00000080: 508b b43d 7b05 a23d 6c3b 78bd f277 9fbd
00000090: 465f a93d 047a 9c3d 7d0f 913d 4f4c 9b3d
000000a0: ff14 a43d b668 bcbd b4e5 b0bd c2da 9b3d
000000b0: 0576 9e3d aed1 723d 42a2 3c3d 956f 903d
000000c0: daf5 213d f835 a5bd ecdc 893d 9016 d8bd
000000d0: 50da 9e3d fdc0 893d 0bc4 95bd a275 9a3d
000000e0: 613f a9bd df58 9e3d 2e70 a23d f82c a7bd
000000f0: ea25 9c3d 3f7e aa3d 782b 963d 0103 a93d
-0.09885693 -0.09355389 0.07490318 0.07716257 0.073926255 0.06539363 0.07437305 -0.07987898
-0.018782832 0.07720916 0.07320611 0.0723402 0.060274936 0.07707828 -0.09190297 -0.09953601
0.07300121 0.088856444 -0.08639473 0.07424681 0.06930332 -0.087925516 0.0684288 0.08134946
-0.077674225 0.07467202 0.08559918 -0.08033576 0.07911471 -0.09612805 0.08070691 -0.08219195
0.08815634 0.079112016 -0.060603544 -0.0778655 0.08270125 0.0764046 0.07083032 0.07582914
0.08011817 -0.091996595 -0.086375624 0.07610084 0.07737354 0.059281997 0.04605318 0.070525326
0.039541103 -0.08066934 0.06731591 -0.105511785 0.077564836 0.06726263 -0.07312783 0.07541968
-0.08264042 0.077317946 0.07931553 -0.08162874 0.07624419 0.08324861 0.0733251 0.08252526

weight f4 [1, 64]
00000000: 2f42 d8bd b5eb 9abd ca19 3e3d 162d 0c3e
00000010: 3c31 283d 661e d73c d618 cb3d 2bc4 c5bd
00000020: 2c22 bdba 0521 423d 5470 1e3e a189 d83c
00000030: 0a9a b63c 4eae 663d 95f0 92bd a187 91be
00000040: 0f61 8d3d 1af4 903d a996 f4bd bfb6 8d3d
00000050: de80 f23d 21e0 1dbe 94bf da3d 6881 d83d
00000060: 055d c5bc 5ea7 1a3d dabd 703d 3920 88bd
00000070: b089 cc3d 8da8 3abe cb5a a63d a3bc 08be
00000080: 69f8 803e 59e6 3c3e 10aa b9ba f76d 03be
00000090: 942b db3d ab24 e23c 0818 a53d c1bb 243e
000000a0: 84c2 ad3c 71bb c9bd 1a37 83bd aed7 633d
000000b0: 20ba 0f3d 166b 4e3c 7425 643b d784 013c
000000c0: d0a4 083c e58d 4ebe be3b ff3c ee0b 84bd
000000d0: 1d4d ef3d 7e25 053e beb6 2abe ac0f fc3d
000000e0: 3399 a4bd df58 f03d 9628 9e3d b117 8abe
000000f0: d692 203e 0aa0 f43d edba 4d3e ea74 ee3d
-0.105594985 -0.07564489 0.046411313 0.13689074 0.04106258 0.026259612 0.099168465 -0.09656557
-0.001442974 0.04739477 0.15472537 0.026432814 0.022290248 0.056318574 -0.07174794 -0.2842379
0.06903278 0.07077809 -0.11942799 0.06919622 0.11840986 -0.1541753 0.10681072 0.10571557
-0.024092207 0.03775727 0.058774807 -0.06646771 0.09987199 -0.1822836 0.08122786 -0.13353209
0.25189522 0.18447246 -0.0014165062 -0.12834917 0.10701671 0.027605375 0.08061224 0.16087247
0.021210916 -0.09850205 -0.06406994 0.05562561 0.035089612 0.012598773 0.0034812363 0.007905207
0.008340076 -0.20171316 0.031156417 -0.06447588 0.1168463 0.13002583 -0.16671273 0.12307677
-0.08037033 0.11735701 0.07722585 -0.269712 0.15681013 0.119445875 0.20090838 0.11643393
